…
  "_diffusers_version": "0.37.0.dev0",
  "is_distilled": true,
  "scheduler": [
    "diffusers",
    "FlowMatchEulerDiscreteScheduler"
  ],
  "text_encoder": [
    "transformers",
    "Qwen3ForCausalLM"
  ],
  "tokenizer": [
    "transformers",
    "Qwen2TokenizerFast"
  ],
  "transformer": [
    "diffusers",
    "Flux2Transformer2DModel"
  ],
  "vae": [
    "diffusers",
    "AutoencoderKLFlux2"
  ]
}

Transformer: Flux2Transformer2DModel(
  (pos_embed): Flux2PosEmbed()
  (time_guidance_embed): Flux2TimestepGuidanceEmbeddings(
    (time_proj): Timesteps()
    (timestep_embedder): TimestepEmbedding(
      (linear_1): Linear(in_features=256, out_features=3072, bias=False)
      (act): SiLU()
      (linear_2): Linear(in_features=3072, out_features=3072, bias=False)
    )
  )
  (double_stream_modulation_img): Flux2Modulation(
    (linear): Linear(in_features=3072, out_features=18432, bias=False)
    (act_fn): SiLU()
  )
  (double_stream_modulation_txt): Flux2Modulation(
    (linear): Linear(in_features=3072, out_features=18432, bias=False)
    (act_fn): SiLU()
  )
  (single_stream_modulation): Flux2Modulation(
    (linear): Linear(in_features=3072, out_features=9216, bias=False)
    (act_fn): SiLU()
  )
  (x_embedder): Linear(in_features=128, out_features=3072, bias=False)
  (context_embedder): Linear(in_features=7680, out_features=3072, bias=False)
  (transformer_blocks): ModuleList(
    (0-4): 5 x Flux2TransformerBlock(
      (norm1): LayerNorm((3072,), eps=1e-06, elementwise_affine=False)
      (norm1_context): LayerNorm((3072,), eps=1e-06, elementwise_affine=False)
      (attn): Flux2Attention(
        (to_q): Linear(in_features=3072, out_features=3072, bias=False)
        (to_k): Linear(in_features=3072, out_features=3072, bias=False)
        (to_v): Linear(in_features=3072, out_features=3072, bias=False)
        (norm_q): RMSNorm((128,), eps=1e-06, elementwise_affine=True)
        (norm_k): RMSNorm((128,), eps=1e-06, elementwise_affine=True)
        (to_out): ModuleList(
          (0): Linear(in_features=3072, out_features=3072, bias=False)
          (1): Dropout(p=0.0, inplace=False)
        )
        (norm_added_q): RMSNorm((128,), eps=1e-06, elementwise_affine=True)
        (norm_added_k): RMSNorm((128,), eps=1e-06, elementwise_affine=True)
        (add_q_proj): Linear(in_features=3072, out_features=3072, bias=False)
        (add_k_proj): Linear(in_features=3072, out_features=3072, bias=False)
        (add_v_proj): Linear(in_features=3072, out_features=3072, bias=False)
        (to_add_out): Linear(in_features=3072, out_features=3072, bias=False)
      )
      (norm2): LayerNorm((3072,), eps=1e-06, elementwise_affine=False)
      (ff): Flux2FeedForward(
        (linear_in): Linear(in_features=3072, out_features=18432, bias=False)
        (act_fn): Flux2SwiGLU(
          (gate_fn): SiLU()
        )
        (linear_out): Linear(in_features=9216, out_features=3072, bias=False)
      )
      (norm2_context): LayerNorm((3072,), eps=1e-06, elementwise_affine=False)
      (ff_context): Flux2FeedForward(
        (linear_in): Linear(in_features=3072, out_features=18432, bias=False)
        (act_fn): Flux2SwiGLU(
          (gate_fn): SiLU()
        )
        (linear_out): Linear(in_features=9216, out_features=3072, bias=False)
      )
    )
  )
  (single_transformer_blocks): ModuleList(
    (0-19): 20 x Flux2SingleTransformerBlock(
      (norm): LayerNorm((3072,), eps=1e-06, elementwise_affine=False)
      (attn): Flux2ParallelSelfAttention(
        (to_qkv_mlp_proj): Linear(in_features=3072, out_features=27648, bias=False)
        (mlp_act_fn): Flux2SwiGLU(
          (gate_fn): SiLU()
        )
        (norm_q): RMSNorm((128,), eps=1e-06, elementwise_affine=True)
        (norm_k): RMSNorm((128,), eps=1e-06, elementwise_affine=True)
        (to_out): Linear(in_features=12288, out_features=3072, bias=False)
      )
    )
  )
  (norm_out): AdaLayerNormContinuous(
    (silu): SiLU()
    (linear): Linear(in_features=3072, out_features=6144, bias=False)
    (norm): LayerNorm((3072,), eps=1e-06, elementwise_affine=False)
  )
  (proj_out): Linear(in_features=3072, out_features=128, bias=False)
)
Scheduler: FlowMatchEulerDiscreteScheduler {
  "_class_name": "FlowMatchEulerDiscreteScheduler",
  "_diffusers_version": "0.37.0.dev0",
  "base_image_seq_len": 256,
  "base_shift": 0.5,
  "invert_sigmas": false,
  "max_image_seq_len": 4096,
  "max_shift": 1.15,
  "num_train_timesteps": 1000,
  "shift": 3.0,
  "shift_terminal": null,
  "stochastic_sampling": false,
…
